…
t, layer4.0.conv2.gn0.bias, layer4.0.conv2.gn1.weight, layer4.0.conv2.gn1.bias, layer4.0.gn3.weight, layer4.0.gn3.bias, layer4.1.gn1.weight, layer4.1.gn1.bias, layer4.1.conv2.gn0.weight, layer4.1.conv2.gn0.bias, layer4.1.conv2.gn1.weight, layer4.1.conv2.gn1.bias, layer4.1.gn3.weight, layer4.1.gn3.bias, layer4.2.gn1.weight, layer4.2.gn1.bias, layer4.2.conv2.gn0.weight, layer4.2.conv2.gn0.bias, layer4.2.conv2.gn1.weight, layer4.2.conv2.gn1.bias, layer4.2.gn3.weight, layer4.2.gn3.bias

2020-12-17 13:05:18,996 - mmseg - INFO - EncoderDecoder(
  (backbone): ResNeSt(
    (stem): Sequential(
      (0): Conv2d(3, 64, kernel_size=(3, 3), stride=(2, 2), padding=(1, 1), bias=False)
      (1): GroupNorm(16, 64, eps=1e-05, affine=True)
      (2): ReLU(inplace=True)
      (3): Conv2d(64, 64, kernel_size=(3, 3), stride=(1, 1), padding=(1, 1), bias=False)
      (4): GroupNorm(16, 64, eps=1e-05, affine=True)
      (5): ReLU(inplace=True)
      (6): Conv2d(64, 128, kernel_size=(3, 3), stride=(1, 1), padding=(1, 1), bias=False)
      (7): GroupNorm(16, 128, eps=1e-05, affine=True)
      (8): ReLU(inplace=True)
    )
    (maxpool): MaxPool2d(kernel_size=3, stride=2, padding=1, dilation=1, ceil_mode=False)
    (layer1): ResLayer(
      (0): Bottleneck(
        (conv1): Conv2d(128, 64, kernel_size=(1, 1), stride=(1, 1), bias=False)
        (gn1): GroupNorm(16, 64, eps=1e-05, affine=True)
        (conv2): SplitAttentionConv2d(
          (conv): Conv2d(64, 128, kernel_size=(3, 3), stride=(1, 1), padding=(1, 1), groups=2, bias=False)
          (gn0): GroupNorm(16, 128, eps=1e-05, affine=True)
          (relu): ReLU(inplace=True)
          (fc1): Conv2d(64, 32, kernel_size=(1, 1), stride=(1, 1))
          (gn1): GroupNorm(16, 32, eps=1e-05, affine=True)
          (fc2): Conv2d(32, 128, kernel_size=(1, 1), stride=(1, 1))
          (rsoftmax): RSoftmax()
        )
        (conv3): Conv2d(64, 256, kernel_size=(1, 1), stride=(1, 1), bias=False)
        (gn3): GroupNorm(16, 256, eps=1e-05, affine=True)
        (relu): ReLU(inplace=True)
        (downsample): Sequential(
          (0): AvgPool2d(kernel_size=1, stride=1, padding=0)
          (1): Conv2d(128, 256, kernel_size=(1, 1), stride=(1, 1), bias=False)
          (2): GroupNorm(16, 256, eps=1e-05, affine=True)
        )
      )
      (1): Bottleneck(
        (conv1): Conv2d(256, 64, kernel_size=(1, 1), stride=(1, 1), bias=False)
        (gn1): GroupNorm(16, 64, eps=1e-05, affine=True)
        (conv2): SplitAttentionConv2d(
          (conv): Conv2d(64, 128, kernel_size=(3, 3), stride=(1, 1), padding=(1, 1), groups=2, bias=False)
          (gn0): GroupNorm(16, 128, eps=1e-05, affine=True)
          (relu): ReLU(inplace=True)
          (fc1): Conv2d(64, 32, kernel_size=(1, 1), stride=(1, 1))
          (gn1): GroupNorm(16, 32, eps=1e-05, affine=True)
          (fc2): Conv2d(32, 128, kernel_size=(1, 1), stride=(1, 1))
          (rsoftmax): RSoftmax()
        )
        (conv3): Conv2d(64, 256, kernel_size=(1, 1), stride=(1, 1), bias=False)
        (gn3): GroupNorm(16, 256, eps=1e-05, affine=True)
        (relu): ReLU(inplace=True)
      )
      (2): Bottleneck(
        (conv1): Conv2d(256, 64, kernel_size=(1, 1), stride=(1, 1), bias=False)
        (gn1): GroupNorm(16, 64, eps=1e-05, affine=True)
        (conv2): SplitAttentionConv2d(
          (conv): Conv2d(64, 128, kernel_size=(3, 3), stride=(1, 1), padding=(1, 1), groups=2, bias=False)
          (gn0): GroupNorm(16, 128, eps=1e-05, affine=True)
          (relu): ReLU(inplace=True)
          (fc1): Conv2d(64, 32, kernel_size=(1, 1), stride=(1, 1))
          (gn1): GroupNorm(16, 32, eps=1e-05, affine=True)
          (fc2): Conv2d(32, 128, kernel_size=(1, 1), stride=(1, 1))
          (rsoftmax): RSoftmax()
        )
        (conv3): Conv2d(64, 256, kernel_size=(1, 1), stride=(1, 1), bias=False)
        (gn3): GroupNorm(16, 256, eps=1e-05, affine=True)
        (relu): ReLU(inplace=True)
      )
    )
    (layer2): ResLayer(
      (0): Bottleneck(
        (conv1): Conv2d(256, 128, kernel_size=(1, 1), stride=(1, 1), bias=False)
        (gn1): GroupNorm(16, 128, eps=1e-05, affine=True)
        (conv2): SplitAttentionConv2d(
          (conv): Conv2d(128, 256, kernel_size=(3, 3), stride=(1, 1), padding=(1, 1), groups=2, bias=False)
          (gn0): GroupNorm(16, 256, eps=1e-05, affine=True)
          (relu): ReLU(inplace=True)
          (fc1): Conv2d(128, 64, kernel_size=(1, 1), stride=(1, 1))
          (gn1): GroupNorm(16, 64, eps=1e-05, affine=True)
          (fc2): Conv2d(64, 256, kernel_size=(1, 1), stride=(1, 1))
          (rsoftmax): RSoftmax()
        )
        (conv3): Conv2d(128, 512, kernel_size=(1, 1), stride=(1, 1), bias=False)
        (gn3): GroupNorm(16, 512, eps=1e-05, affine=True)
        (relu): ReLU(inplace=True)
        (downsample): Sequential(
          (0): AvgPool2d(kernel_size=2, stride=2, padding=0)
          (1): Conv2d(256, 512, kernel_size=(1, 1), stride=(1, 1), bias=False)
          (2): GroupNorm(16, 512, eps=1e-05, affine=True)
        )
        (avd_layer): AvgPool2d(kernel_size=3, stride=2, padding=1)
      )
      (1): Bottleneck(
        (conv1): Conv2d(512, 128, kernel_size=(1, 1), stride=(1, 1), bias=False)
        (gn1): GroupNorm(16, 128, eps=1e-05, affine=True)
        (conv2): SplitAttentionConv2d(
          (conv): Conv2d(128, 256, kernel_size=(3, 3), stride=(1, 1), padding=(1, 1), groups=2, bias=False)
          (gn0): GroupNorm(16, 256, eps=1e-05, affine=True)
          (relu): ReLU(inplace=True)
          (fc1): Conv2d(128, 64, kernel_size=(1, 1), stride=(1, 1))
          (gn1): GroupNorm(16, 64, eps=1e-05, affine=True)
          (fc2): Conv2d(64, 256, kernel_size=(1, 1), stride=(1, 1))
          (rsoftmax): RSoftmax()
        )
        (conv3): Conv2d(128, 512, kernel_size=(1, 1), stride=(1, 1), bias=False)
        (gn3): GroupNorm(16, 512, eps=1e-05, affine=True)
        (relu): ReLU(inplace=True)
      )
      (2): Bottleneck(
        (conv1): Conv2d(512, 128, kernel_size=(1, 1), stride=(1, 1), bias=False)
        (gn1): GroupNorm(16, 128, eps=1e-05, affine=True)
        (conv2): SplitAttentionConv2d(
          (conv): Conv2d(128, 256, kernel_size=(3, 3), stride=(1, 1), padding=(1, 1), groups=2, bias=False)
          (gn0): GroupNorm(16, 256, eps=1e-05, affine=True)
          (relu): ReLU(inplace=True)
          (fc1): Conv2d(128, 64, kernel_size=(1, 1), stride=(1, 1))
          (gn1): GroupNorm(16, 64, eps=1e-05, affine=True)
          (fc2): Conv2d(64, 256, kernel_size=(1, 1), stride=(1, 1))
          (rsoftmax): RSoftmax()
        )
        (conv3): Conv2d(128, 512, kernel_size=(1, 1), stride=(1, 1), bias=False)
        (gn3): GroupNorm(16, 512, eps=1e-05, affine=True)
        (relu): ReLU(inplace=True)
      )
      (3): Bottleneck(
        (conv1): Conv2d(512, 128, kernel_size=(1, 1), stride=(1, 1), bias=False)
        (gn1): GroupNorm(16, 128, eps=1e-05, affine=True)
        (conv2): SplitAttentionConv2d(
          (conv): Conv2d(128, 256, kernel_size=(3, 3), stride=(1, 1), padding=(1, 1), groups=2, bias=False)
          (gn0): GroupNorm(16, 256, eps=1e-05, affine=True)
          (relu): ReLU(inplace=True)
          (fc1): Conv2d(128, 64, kernel_size=(1, 1), stride=(1, 1))
          (gn1): GroupNorm(16, 64, eps=1e-05, affine=True)
          (fc2): Conv2d(64, 256, kernel_size=(1, 1), stride=(1, 1))
          (rsoftmax): RSoftmax()
        )
        (conv3): Conv2d(128, 512, kernel_size=(1, 1), stride=(1, 1), bias=False)
        (gn3): GroupNorm(16, 512, eps=1e-05, affine=True)
        (relu): ReLU(inplace=True)
      )
    )
    (layer3): ResLayer(
      (0): Bottleneck(
        (conv1): Conv2d(512, 256, kernel_size=(1, 1), stride=(1, 1), bias=False)
        (gn1): GroupNorm(16, 256, eps=1e-05, affine=True)
        (conv2): SplitAttentionConv2d(
          (conv): Conv2d(256, 512, kernel_size=(3, 3), stride=(1, 1), padding=(1, 1), groups=2, bias=False)
          (gn0): GroupNorm(16, 512, eps=1e-05, affine=True)
          (relu): ReLU(inplace=True)
          (fc1): Conv2d(256, 128, kernel_size=(1, 1), stride=(1, 1))
          (gn1): GroupNorm(16, 128, eps=1e-05, affine=True)
          (fc2): Conv2d(128, 512, kernel_size=(1, 1), stride=(1, 1))
          (rsoftmax): RSoftmax()
        )
        (conv3): Conv2d(256, 1024, kernel_size=(1, 1), stride=(1, 1), bias=False)
        (gn3): GroupNorm(16, 1024, eps=1e-05, affine=True)
        (relu): ReLU(inplace=True)
        (downsample): Sequential(
          (0): AvgPool2d(kernel_size=1, stride=1, padding=0)
          (1): Conv2d(512, 1024, kernel_size=(1, 1), stride=(1, 1), bias=False)
          (2): GroupNorm(16, 1024, eps=1e-05, affine=True)
        )
      )
      (1): Bottleneck(
        (conv1): Conv2d(1024, 256, kernel_size=(1, 1), stride=(1, 1), bias=False)
        (gn1): GroupNorm(16, 256, eps=1e-05, affine=True)
        (conv2): SplitAttentionConv2d(
          (conv): Conv2d(256, 512, kernel_size=(3, 3), stride=(1, 1), padding=(2, 2), dilation=(2, 2), groups=2, bias=False)
          (gn0): GroupNorm(16, 512, eps=1e-05, affine=True)
          (relu): ReLU(inplace=True)
          (fc1): Conv2d(256, 128, kernel_size=(1, 1), stride=(1, 1))
          (gn1): GroupNorm(16, 128, eps=1e-05, affine=True)
          (fc2): Conv2d(128, 512, kernel_size=(1, 1), stride=(1, 1))
          (rsoftmax): RSoftmax()
        )
        (conv3): Conv2d(256, 1024, kernel_size=(1, 1), stride=(1, 1), bias=False)
        (gn3): GroupNorm(16, 1024, eps=1e-05, affine=True)
        (relu): ReLU(inplace=True)
      )
      (2): Bottleneck(
        (conv1): Conv2d(1024, 256, kernel_size=(1, 1), stride=(1, 1), bias=False)
        (gn1): GroupNorm(16, 256, eps=1e-05, affine=True)
        (conv2): SplitAttentionConv2d(
          (conv): Conv2d(256, 512, kernel_size=(3, 3), stride=(1, 1), padding=(2, 2), dilation=(2, 2), groups=2, bias=False)
          (gn0): GroupNorm(16, 512, eps=1e-05, affine=True)
          (relu): ReLU(inplace=True)
          (fc1): Conv2d(256, 128, kernel_size=(1, 1), stride=(1, 1))
          (gn1): GroupNorm(16, 128, eps=1e-05, affine=True)
          (fc2): Conv2d(128, 512, kernel_size=(1, 1), stride=(1, 1))
          (rsoftmax): RSoftmax()
        )
        (conv3): Conv2d(256, 1024, kernel_size=(1, 1), stride=(1, 1), bias=False)
        (gn3): GroupNorm(16, 1024, eps=1e-05, affine=True)
        (relu): ReLU(inplace=True)
      )
      (3): Bottleneck(
        (conv1): Conv2d(1024, 256, kernel_size=(1, 1), stride=(1, 1), bias=False)
        (gn1): GroupNorm(16, 256, eps=1e-05, affine=True)
        (conv2): SplitAttentionConv2d(
          (conv): Conv2d(256, 512, kernel_size=(3, 3), stride=(1, 1), padding=(2, 2), dilation=(2, 2), groups=2, bias=False)
          (gn0): GroupNorm(16, 512, eps=1e-05, affine=True)
          (relu): ReLU(inplace=True)
          (fc1): Conv2d(256, 128, kernel_size=(1, 1), stride=(1, 1))
          (gn1): GroupNorm(16, 128, eps=1e-05, affine=True)
          (fc2): Conv2d(128, 512, kernel_size=(1, 1), stride=(1, 1))
          (rsoftmax): RSoftmax()
        )
        (conv3): Conv2d(256, 1024, kernel_size=(1, 1), stride=(1, 1), bias=False)
        (gn3): GroupNorm(16, 1024, eps=1e-05, affine=True)
        (relu): ReLU(inplace=True)
      )
      (4): Bottleneck(
        (conv1): Conv2d(1024, 256, kernel_size=(1, 1), stride=(1, 1), bias=False)
        (gn1): GroupNorm(16, 256, eps=1e-05, affine=True)
        (conv2): SplitAttentionConv2d(
          (conv): Conv2d(256, 512, kernel_size=(3, 3), stride=(1, 1), padding=(2, 2), dilation=(2, 2), groups=2, bias=False)
          (gn0): GroupNorm(16, 512, eps=1e-05, affine=True)
          (relu): ReLU(inplace=True)
          (fc1): Conv2d(256, 128, kernel_size=(1, 1), stride=(1, 1))
          (gn1): GroupNorm(16, 128, eps=1e-05, affine=True)
          (fc2): Conv2d(128, 512, kernel_size=(1, 1), stride=(1, 1))
          (rsoftmax): RSoftmax()
        )
        (conv3): Conv2d(256, 1024, kernel_size=(1, 1), stride=(1, 1), bias=False)
        (gn3): GroupNorm(16, 1024, eps=1e-05, affine=True)
        (relu): ReLU(inplace=True)
      )
      (5): Bottleneck(
        (conv1): Conv2d(1024, 256, kernel_size=(1, 1), stride=(1, 1), bias=False)
        (gn1): GroupNorm(16, 256, eps=1e-05, affine=True)
        (conv2): SplitAttentionConv2d(
          (conv): Conv2d(256, 512, kernel_size=(3, 3), stride=(1, 1), padding=(2, 2), dilation=(2, 2), groups=2, bias=False)
          (gn0): GroupNorm(16, 512, eps=1e-05, affine=True)
          (relu): ReLU(inplace=True)
          (fc1): Conv2d(256, 128, kernel_size=(1, 1), stride=(1, 1))
          (gn1): GroupNorm(16, 128, eps=1e-05, affine=True)
          (fc2): Conv2d(128, 512, kernel_size=(1, 1), stride=(1, 1))
          (rsoftmax): RSoftmax()
        )
        (conv3): Conv2d(256, 1024, kernel_size=(1, 1), stride=(1, 1), bias=False)
        (gn3): GroupNorm(16, 1024, eps=1e-05, affine=True)
        (relu): ReLU(inplace=True)
      )
    )
    (layer4): ResLayer(
      (0): Bottleneck(
        (conv1): Conv2d(1024, 512, kernel_size=(1, 1), stride=(1, 1), bias=False)
        (gn1): GroupNorm(16, 512, eps=1e-05, affine=True)
        (conv2): SplitAttentionConv2d(
          (conv): Conv2d(512, 1024, kernel_size=(3, 3), stride=(1, 1), padding=(2, 2), dilation=(2, 2), groups=2, bias=False)
          (gn0): GroupNorm(16, 1024, eps=1e-05, affine=True)
          (relu): ReLU(inplace=True)
          (fc1): Conv2d(512, 256, kernel_size=(1, 1), stride=(1, 1))
          (gn1): GroupNorm(16, 256, eps=1e-05, affine=True)
          (fc2): Conv2d(256, 1024, kernel_size=(1, 1), stride=(1, 1))
          (rsoftmax): RSoftmax()
        )
        (conv3): Conv2d(512, 2048, kernel_size=(1, 1), stride=(1, 1), bias=False)
        (gn3): GroupNorm(16, 2048, eps=1e-05, affine=True)
        (relu): ReLU(inplace=True)
        (downsample): Sequential(
          (0): AvgPool2d(kernel_size=1, stride=1, padding=0)
          (1): Conv2d(1024, 2048, kernel_size=(1, 1), stride=(1, 1), bias=False)
          (2): GroupNorm(16, 2048, eps=1e-05, affine=True)
        )
      )
      (1): Bottleneck(
        (conv1): Conv2d(2048, 512, kernel_size=(1, 1), stride=(1, 1), bias=False)
        (gn1): GroupNorm(16, 512, eps=1e-05, affine=True)
        (conv2): SplitAttentionConv2d(
          (conv): Conv2d(512, 1024, kernel_size=(3, 3), stride=(1, 1), padding=(4, 4), dilation=(4, 4), groups=2, bias=False)
          (gn0): GroupNorm(16, 1024, eps=1e-05, affine=True)
          (relu): ReLU(inplace=True)
          (fc1): Conv2d(512, 256, kernel_size=(1, 1), stride=(1, 1))
          (gn1): GroupNorm(16, 256, eps=1e-05, affine=True)
          (fc2): Conv2d(256, 1024, kernel_size=(1, 1), stride=(1, 1))
          (rsoftmax): RSoftmax()
        )
        (conv3): Conv2d(512, 2048, kernel_size=(1, 1), stride=(1, 1), bias=False)
        (gn3): GroupNorm(16, 2048, eps=1e-05, affine=True)
        (relu): ReLU(inplace=True)
      )
      (2): Bottleneck(
        (conv1): Conv2d(2048, 512, kernel_size=(1, 1), stride=(1, 1), bias=False)
        (gn1): GroupNorm(16, 512, eps=1e-05, affine=True)
        (conv2): SplitAttentionConv2d(
          (conv): Conv2d(512, 1024, kernel_size=(3, 3), stride=(1, 1), padding=(4, 4), dilation=(4, 4), groups=2, bias=False)
          (gn0): GroupNorm(16, 1024, eps=1e-05, affine=True)
          (relu): ReLU(inplace=True)
          (fc1): Conv2d(512, 256, kernel_size=(1, 1), stride=(1, 1))
          (gn1): GroupNorm(16, 256, eps=1e-05, affine=True)
          (fc2): Conv2d(256, 1024, kernel_size=(1, 1), stride=(1, 1))
          (rsoftmax): RSoftmax()
        )
        (conv3): Conv2d(512, 2048, kernel_size=(1, 1), stride=(1, 1), bias=False)
        (gn3): GroupNorm(16, 2048, eps=1e-05, affine=True)
        (relu): ReLU(inplace=True)
      )
    )
  )
  (decode_head): DepthwiseSeparableASPPHead(
    input_transform=None, ignore_index=255, align_corners=False
    (loss_decode): CrossEntropyLoss()
    (conv_seg): Conv2d(512, 19, kernel_size=(1, 1), stride=(1, 1))
    (dropout): Dropout2d(p=0.1, inplace=False)
    (image_pool): Sequential(
      (0): AdaptiveAvgPool2d(output_size=1)
      (1): ConvModule(
        (conv): Conv2d(2048, 512, kernel_size=(1, 1), stride=(1, 1), bias=False)
        (gn): GroupNorm(16, 512, eps=1e-05, affine=True)
        (activate): ReLU(inplace=True)
      )
    )
    (aspp_modules): DepthwiseSeparableASPPModule(
      (0): ConvModule(
        (conv): Conv2d(2048, 512, kernel_size=(1, 1), stride=(1, 1), bias=False)
        (gn): GroupNorm(16, 512, eps=1e-05, affine=True)
        (activate): ReLU(inplace=True)
      )
      (1): DepthwiseSeparableConvModule(
        (depthwise_conv): ConvModule(
          (conv): Conv2d(2048, 2048, kernel_size=(3, 3), stride=(1, 1), padding=(12, 12), dilation=(12, 12), groups=2048, bias=False)
          (gn): GroupNorm(16, 2048, eps=1e-05, affine=True)
          (activate): ReLU(inplace=True)
        )
        (pointwise_conv): ConvModule(
          (conv): Conv2d(2048, 512, kernel_size=(1, 1), stride=(1, 1), bias=False)
          (gn): GroupNorm(16, 512, eps=1e-05, affine=True)
          (activate): ReLU(inplace=True)
        )
      )
      (2): DepthwiseSeparableConvModule(
        (depthwise_conv): ConvModule(
          (conv): Conv2d(2048, 2048, kernel_size=(3, 3), stride=(1, 1), padding=(24, 24), dilation=(24, 24), groups=2048, bias=False)
          (gn): GroupNorm(16, 2048, eps=1e-05, affine=True)
          (activate): ReLU(inplace=True)
        )
        (pointwise_conv): ConvModule(
          (conv): Conv2d(2048, 512, kernel_size=(1, 1), stride=(1, 1), bias=False)
          (gn): GroupNorm(16, 512, eps=1e-05, affine=True)
          (activate): ReLU(inplace=True)
        )
      )
      (3): DepthwiseSeparableConvModule(
        (depthwise_conv): ConvModule(
          (conv): Conv2d(2048, 2048, kernel_size=(3, 3), stride=(1, 1), padding=(36, 36), dilation=(36, 36), groups=2048, bias=False)
          (gn): GroupNorm(16, 2048, eps=1e-05, affine=True)
          (activate): ReLU(inplace=True)
        )
        (pointwise_conv): ConvModule(
          (conv): Conv2d(2048, 512, kernel_size=(1, 1), stride=(1, 1), bias=False)
          (gn): GroupNorm(16, 512, eps=1e-05, affine=True)
          (activate): ReLU(inplace=True)
        )
      )
    )
    (bottleneck): ConvModule(
      (conv): Conv2d(2560, 512, kernel_size=(3, 3), stride=(1, 1), padding=(1, 1), bias=False)
      (gn): GroupNorm(16, 512, eps=1e-05, affine=True)
      (activate): ReLU(inplace=True)
    )
    (c1_bottleneck): ConvModule(
      (conv): Conv2d(256, 48, kernel_size=(1, 1), stride=(1, 1), bias=False)
      (gn): GroupNorm(16, 48, eps=1e-05, affine=True)
      (activate): ReLU(inplace=True)
    )
    (sep_bottleneck): Sequential(
      (0): DepthwiseSeparableConvModule(
        (depthwise_conv): ConvModule(
          (conv): Conv2d(560, 560, kernel_size=(3, 3), stride=(1, 1), padding=(1, 1), groups=560, bias=False)
          (gn): GroupNorm(16, 560, eps=1e-05, affine=True)
          (activate): ReLU(inplace=True)
        )
        (pointwise_conv): ConvModule(
          (conv): Conv2d(560, 512, kernel_size=(1, 1), stride=(1, 1), bias=False)
          (gn): GroupNorm(16, 512, eps=1e-05, affine=True)
          (activate): ReLU(inplace=True)
        )
      )
      (1): DepthwiseSeparableConvModule(
        (depthwise_conv): ConvModule(
          (conv): Conv2d(512, 512, kernel_size=(3, 3), stride=(1, 1), padding=(1, 1), groups=512, bias=False)
          (gn): GroupNorm(16, 512, eps=1e-05, affine=True)
          (activate): ReLU(inplace=True)
        )
        (pointwise_conv): ConvModule(
          (conv): Conv2d(512, 512, kernel_size=(1, 1), stride=(1, 1), bias=False)
          (gn): GroupNorm(16, 512, eps=1e-05, affine=True)
          (activate): ReLU(inplace=True)
        )
      )
    )
  )
  (auxiliary_head): FCNHead(
    input_transform=None, ignore_index=255, align_corners=False
    (loss_decode): CrossEntropyLoss()
    (conv_seg): Conv2d(256, 19, kernel_size=(1, 1), stride=(1, 1))
    (dropout): Dropout2d(p=0.1, inplace=False)
    (convs): Sequential(
      (0): ConvModule(
        (conv): Conv2d(1024, 256, kernel_size=(3, 3), stride=(1, 1), padding=(1, 1), bias=False)
        (gn): GroupNorm(16, 256, eps=1e-05, affine=True)
        (activate): ReLU(inplace=True)
      )
    )
  )
)
2020-12-17 13:05:19,043 - mmseg - INFO - Loaded 2975 images
2020-12-17 13:05:19,514 - mmseg - INFO - Loaded 500 images
2020-12-17 13:05:19,514 - mmseg - INFO - Start running, host: gandi@Gandi, work_dir: /home/gandi/Donglusen/workspace/mmsegmentation/work_dirs/deeplabv3plus_s101-d8_512x1024_160k_cityscapes_sccqq
…
